data.pth (torch, 5055 bytes, 6 tensors)

l1.weight f4 [8, 54]
-0.29243615 -0.30215263 0.07177362 0.49760973 0.26534173 0.357608 0.060267013 0.011373822
-0.08807236 -0.0356416 0.75995576 0.5408675 -0.13136546 0.48435137 -0.2945662 0.51475364
0.5456387 0.16240713 -0.09281874 0.7504157 -0.35256016 0.67971444 0.84259754 0.88343906
0.5780232 0.6077638 -0.38993904 -0.21379332 -0.35677364 -0.1217674 0.17617945 0.6858148
-0.046510376 0.12891446 -0.17197607 0.5804057 -0.16457355 -0.11120119 -0.15878077 -0.0029713868
0.24149613 -0.23737752 0.55046326 -0.22224702 0.59026676 -0.20256165 -0.76887405 -0.24660303
0.15493302 -0.3281791 0.62706375 -0.09768213 -0.17227906 -0.12224128 0.22468309 0.5133487
0.1003004 -0.39117807 -0.39802352 0.28303438 0.1553762 -0.112961456 0.21421213 -0.006247264
-0.17191838 0.65637773 0.47632113 0.49400237 0.5073433 0.29840434 -0.3446527 0.21114166
0.24382177 -0.54089326 0.11761012 -0.54080313 -0.5388955 0.15023328 0.39624664 -0.32864937
0.5547152 0.68112713 0.31506264 0.69134635 0.24381725 0.48340318 0.15604667 0.003077403
0.6060694 0.38823 0.2511269 0.3602661 -0.060842637 0.11743482 0.15905921 0.2452128
0.4582041 0.43114004 0.5138477 0.7805555 0.4136585 0.31226808 0.17891969 0.5068956
0.33272886 0.09943287 -0.026905155 -0.19994292 0.87561935 0.45115715 -0.4066857 -0.13637148
-0.1749525 0.66481656 -0.13782267 -0.14358033 -0.4984255 -0.33008346 -0.43874162 -0.060285706
-0.44597378 -0.1140912 0.17412753 0.41612232 -0.3063873 0.6691172 -0.24744105 -0.56455624
0.53422546 -0.73077166 -0.60516834 -0.062303692 -0.10087571 -0.20047826 -0.2737771 0.12116028
-0.17433718 0.41666478 0.30240723 -0.14981054 0.5293429 -0.40012962 0.11610965 0.46220315
-0.042593632 -0.57925385 -0.17512003 -0.14855696 0.55003965 -0.42688552 -0.07406446 0.4121316
-0.3351301 0.10310835 1.3928994 0.5886829 -0.29896984 -0.37985903 0.44199297 -0.28627455
-0.27211937 0.4180361 0.16082272 0.55510604 -0.46399444 -0.26522517 -0.17318529 0.07126125
-0.00012972024 -0.39613077 -0.23842594 -0.19077665 -0.1948125 -0.25175044 0.33398277 -0.033764444
0.5748916 -0.20138283 -0.14935876 0.04423197 0.23220292 -0.3441986 0.39248326 -0.34426346
-0.3442576 -0.56049556 -0.061524797 -0.27705196 0.40532035 0.8004542 0.34491855 0.50909364
-0.12752119 -0.09766333 0.14464003 -0.4290832 0.69518363 -0.11928692 0.46767592 -0.18839462
-0.07987607 -0.07230433 -0.018008834 0.43611878 0.087116 0.6359466 -0.40521318 0.7484126
0.65221894 0.2598956 0.19808702 0.33712184 -0.009322502 0.25868782 -0.14856337 0.38946757
-0.24555963 0.26784164 0.48978716 -0.103620835 0.4626531 0.088562004 0.68111175 0.70881826
0.79281527 0.5903564 0.10047509 0.03319276 0.86451083 -0.11225762 0.23583323 0.088975385
0.060529884 -0.09971804 0.6142774 0.07697617 -0.23953421 -0.05369936 0.15734096 -0.18386596
0.40770674 0.07273614 0.7601281 0.23544037 0.6248706 0.014703383 -0.06009146 -0.14567587
-0.11014652 0.46802017 0.46773902 0.11270376 0.41454723 0.5726276 0.7176641 0.6499553
00000000: 31ba 95be c0b3 9abe 0cfe 923d b4c6 fe3e
00000010: dfda 873e 6518 b73e 8bda 763d 4459 3a3c
00000020: 485f b4bd edfc 11bd 768c 423f 4b76 0a3f
00000030: ab84 06be e7fc f73e 62d1 96be e5c6 033f
00000040: faae 0b3f 0e4e 263e c017 bebd 3e1b 403f
00000050: c482 b4be c401 2e3f 79b4 573f 1029 623f
00000060: 54f9 133f 6996 1b3f 17a6 c7be a3ec 5abe
00000070: 09ab b6be 3061 f9bd 6368 343e 8f91 2f3f
00000080: aa81 3ebd 2702 043e 7f1a 30be 7895 143f
00000090: f885 28be 73bd e3bd 6d97 22be 99bb 42bb
000000a0: c34a 773e 1813 73be 29eb 0c3f b994 63be
000000b0: b91b 173f 526c 4fbe eed4 44bf 8185 7cbe
000000c0: c3a6 1e3e 1707 a8be 4087 203f 920d c8bd
000000d0: ec69 30be a359 fabd 5313 663e d26a 033f
000000e0: 4c6a cd3d 7e48 c8be bdc9 cbbe e2e9 903e
000000f0: f01a 1f3e 5658 e7bd 6d5a 5b3e d9b5 ccbb
00000100: 5f0b 30be 5f08 283f 5de0 f33e e1ed fc3e
00000110: 40e1 013f 74c8 983e 5276 b0be 8535 583e
00000120: 6aac 793e fb77 0abf 93dd f03d 1372 0abf
00000130: 0ef5 09bf c1d6 193e d7e0 ca3e bb44 a8be
00000140: d101 0e3f 595e 2e3f e44f a13e 13fc 303f
00000150: 3bab 793e 9f80 f73e b3ca 1f3e 41ae 493b
00000160: 5d27 1b3f 15c6 c63e b493 803e cc74 b83e
00000170: 2136 79bd ab81 f03d 6be0 223e 1019 7b3e
00000180: ba99 ea3e 63be dc3e 868b 033f 7cd2 473f
00000190: 0ccb d33e 9ae1 9f3e b936 373e e9c3 013f
000001a0: 705b aa3e 76a3 cb3d 3368 dcbc d6bd 4cbe
000001b0: 9728 603f 12fe e63e 1c39 d0be f7a4 0bbe
000001c0: c026 33be 6b31 2a3f 6321 0dbe b906 13be
000001d0: a131 ffbe b300 a9be bea2 e0be 25ee 76bd
000001e0: ad56 e4be a6a8 e9bd 7d4e 323e fc0d d53e
000001f0: ccde 9cbe 444b 2b3f 3061 7dbe c286 10bf
00000200: 00c3 083f da13 3bbf 50ec 1abf 2832 7fbd
00000210: ed97 cebd 2c4a 4dbe 832c 8cbe e222 f83d
00000220: 7285 32be 1655 d53e 1fd5 9a3e ef67 19be
00000230: 0483 073f cadd ccbe e5ca ed3d e4a5 ec3e
00000240: a976 2ebd fb49 14bf aa52 33be 511f 18be
00000250: 66cf 0c3f bd90 dabe 1caf 97bd ea02 d33e
00000260: 2c96 abbe 782a d33d 874a b23f ecb3 163f
00000270: 9312 99be e27c c2be e74c e23e 9492 92be
00000280: 3b53 8bbe d408 d63e b6ae 243e 6e1b 0e3f
00000290: ae90 edbe 98cb 87be 7c57 31be 6bf1 913d
000002a0: 8305 08b9 a7d1 cabe ee25 74be f45a 43be
000002b0: ee7c 47be 6fe5 80be caff aa3e 964c 0abd
000002c0: 192c 133f 4d37 4ebe 81f1 18be 952c 353d
000002d0: 9ac6 6d3e cd3a b0be 91f3 c83e 4d43 b0be
000002e0: 8842 b0be a37c 0fbf 6d01 7cbd c1d9 8dbe
000002f0: 2686 cf3e 91ea 4c3f 2a99 b03e f653 023f
00000300: ea94 02be b603 c8bd 841c 143e cbb0 dbbe
00000310: 8ef7 313f b34c f4bd 3873 ef3e 85ea 40be
00000320: 1196 a3bd 4b14 94bd 4387 93bc f64a df3e
00000330: e069 b23d 65cd 223f 1a78 cfbe f897 3f3f
00000340: d2f7 263f 0911 853e 53d7 4a3e 3c9b ac3e
00000350: 68bd 18bc bb72 843e ff20 18be 4b68 c73e
00000360: fc73 7bbe 8a22 893e 62c5 fa3e 2937 d4bd
00000370: dee0 ec3e ff5f b53d 575d 2e3f 1d75 353f
00000380: f1f5 4a3f 9921 173f e2c5 cd3d 22f5 073d
00000390: 9550 5d3f 53e7 e5bd 447e 713e ba38 b63d
000003a0: 2fee 773d f938 ccbd 4941 1d3f afa5 9d3d
000003b0: 7548 75be dcf3 5bbd fd1d 213e 5c47 3cbe
000003c0: f0be d03e aff6 943d c197 423f 4817 713e
000003d0: 85f7 1f3f 75e6 703c 7622 76bd 0e2c 15be
000003e0: 8094 e1bd 57a0 ef3e 7d7b ef3e 3bd1 e63d
000003f0: 893f d43e b997 123f d6b8 373f 7863 263f

l1.bias f4 [8]
0.89133924 0.54073733 0.83441865 0.34421116 0.6400432 0.7868288 1.2996813 0.5929425
00000000: cf2e 643f c36d 0a3f 769c 553f 723c b03e
00000010: dfd9 233f 9d6d 493f f55b a63f 14cb 173f

l2.weight f4 [8, 8]
1.4338627 -0.17316897 -0.26595122 -0.92649424 0.9716763 1.2379155 1.4433923 -0.4861182
0.67678875 0.7325611 -0.17676225 -0.61245143 -0.3671575 0.24043277 -0.7912583 0.53438973
0.2595439 0.08925645 0.24743547 -0.16594176 -0.14279115 -0.26464188 -0.3798419 -0.108198754
-0.8126266 1.2979435 1.4665858 0.88385767 0.16302297 -0.91531533 1.1269975 1.3973485
-0.8371039 1.1155481 -1.0499356 0.7830089 1.1910627 0.7871855 -0.024002008 0.65416074
-0.43922848 0.44957402 -0.89625114 -0.42004934 1.0679052 0.7629678 -0.631241 -0.11706485
0.42603981 0.22562778 0.5220819 0.23006667 -0.01877911 0.11002342 -0.54685974 0.22668944
1.0784239 0.42035925 -0.25294855 -0.5652677 0.30703977 0.8245232 -0.7464766 -0.38157016
00000000: d088 b73f 3553 31be c22a 88be ba2e 6dbf
00000010: c7bf 783f 0474 9e3f 14c1 b83f 7ce4 f8be
00000020: 0742 2d3f 2089 3b3f 2a01 35be 9ec9 1cbf
00000030: 11fc bbbe 0234 763e e78f 4abf c4cd 083f
00000040: f0e2 843e 16cc b63d b95f 7d3e a3ec 29be
00000050: d837 12be 247f 87be a37a c2be 4f97 ddbd
00000060: 4c08 50bf 0323 a63f 15b9 bb3f 7f44 623f
00000070: 7eef 263e 1b52 6abf 7441 903f 51dc b23f
00000080: 714c 56bf 48ca 8e3f 4a64 86bf 4573 483f
00000090: be74 983f fd84 493f dc9f c4bc 1477 273f
000000a0: 8ee2 e0be 912e e63e b770 65bf b510 d7be
000000b0: 1eb1 883f dc51 433f 0399 21bf b2bf efbd
000000c0: e421 da3e f80a 673e 29a7 053f 9996 6b3e
000000d0: a6d6 99bc f553 e13d 00ff 0bbf 4721 683e
000000e0: cb09 8a3f 5439 d73e 7982 81be 62b5 10bf
000000f0: 5134 9d3e f413 533f 1719 3fbf 2a5d c3be

l2.bias f4 [8]
0.7241819 -0.2893877 -0.2779002 0.5766977 -0.31708744 0.2755342 -0.57465756 -0.10350955
00000000: fc63 393f a02a 94be ef48 8ebe 76a2 133f
00000010: 4959 a2be d212 8d3e c21c 13bf d1fc d3bd

l3.weight f4 [7, 8]
-0.29804376 0.645984 -0.03797924 -0.84711003 -0.17461781 0.2411026 0.57044977 0.62084895
-1.1483507 -0.4023554 0.04377399 0.2153056 0.3879387 -0.8048404 0.016991949 -0.47980428
0.39916822 -0.36513126 0.11233853 0.2956463 -1.365085 -0.4208689 -0.53226614 -1.7332053
1.0871991 -0.7626525 0.21717787 -1.1344147 -1.1557012 -0.6491968 -0.18478343 -0.21698992
-0.25584027 -0.38291812 -0.3168269 -0.5053194 0.6049253 0.5544428 -0.67111075 -1.315967
0.09308939 -1.1970155 0.27535862 -1.4063829 0.21549645 0.65552235 -0.70940477 0.54898554
-1.8906878 -0.3573062 -0.19671927 0.9164519 -1.6872965 -0.26803535 0.3033955 -0.40449446
00000000: 3199 98be 355f 253f 1f90 1bbd 34dc 58bf
00000010: 03cf 32be 9ae3 763e ff08 123f f5ef 1e3f
00000020: 28fd 92bf 8701 cebe 5b4c 333d 1279 5c3e
00000030: e79f c63e 050a 4ebf b332 8b3c e8a8 f5be
00000040: c75f cc3e 7cf2 babe be11 e63d f45e 973e
00000050: 1bbb aebf 217c d7be 9842 08bf acd9 ddbf
00000060: 5729 8b3f 323d 43bf e063 5e3e 8034 91bf
00000070: 04ee 93bf c331 26bf de37 3dbe 9b32 5ebe
00000080: 7ffd 82be d80d c4be 2337 a2be 9d5c 01bf
00000090: 62dc 1a3f f7ef 0d3f eacd 2bbf 9b71 a8bf
000000a0: a6a5 be3d ce37 99bf cefb 8c3e 5b04 b4bf
000000b0: 1aab 5c3e 50d0 273f 8d9b 35bf 518a 0c3f
000000c0: 0f02 f2bf d7f0 b6be c770 49be 979c 6a3f
000000d0: 55f9 d7bf ee3b 89be a856 9b3e e619 cfbe

l3.bias f4 [7]
-0.55960155 0.03543876 0.13219465 0.06537206 -0.06802215 -0.10314001 0.39586273
00000000: 0c42 0fbf 3c28 113d 095e 073e c9e1 853d
00000010: 324f 8bbd 123b d3bd 85ae ca3e
